…
id07175': 769, 'id03877': 770, 'id00755': 771, 'id04151': 772, 'id00022': 773, 'id08022': 774, 'id02384': 775, 'id06474': 776, 'id04716': 777, 'id04560': 778, 'id02040': 779, 'id02437': 780, 'id00911': 781, 'id03931': 782, 'id03527': 783, 'id01315': 784, 'id03820': 785, 'id03352': 786, 'id02150': 787, 'id00752': 788, 'id07980': 789, 'id07341': 790, 'id01639': 791, 'id03304': 792, 'id04589': 793, 'id02252': 794, 'id08477': 795, 'id07954': 796, 'id03907': 797, 'id04300': 798, 'id06905': 799}, speakers=800)

Total number of parameters: 25810661 

av_convtasnet(
  (encoder): Encoder(
    (conv1d_U): Conv1d(1, 256, kernel_size=(40,), stride=(20,), bias=False)
  )
  (separator): TemporalConvNet(
    (layer_norm): ChannelWiseLayerNorm((256,), eps=1e-05, elementwise_affine=True)
    (bottleneck_conv1x1): Conv1d(256, 256, kernel_size=(1,), stride=(1,), bias=False)
    (tcn): ModuleList(
      (0-3): 4 x Sequential(
        (0): Conv1d(512, 256, kernel_size=(1,), stride=(1,), bias=False)
        (1): TemporalBlock(
          (net): Sequential(
            (0): Conv1d(256, 512, kernel_size=(1,), stride=(1,), bias=False)
            (1): PReLU(num_parameters=1)
            (2): GlobalLayerNorm()
            (3): DepthwiseSeparableConv(
              (net): Sequential(
                (0): Conv1d(512, 512, kernel_size=(3,), stride=(1,), padding=(1,), groups=512, bias=False)
                (1): PReLU(num_parameters=1)
                (2): GlobalLayerNorm()
                (3): Conv1d(512, 256, kernel_size=(1,), stride=(1,), bias=False)
              )
            )
          )
        )
        (2): TemporalBlock(
          (net): Sequential(
            (0): Conv1d(256, 512, kernel_size=(1,), stride=(1,), bias=False)
            (1): PReLU(num_parameters=1)
            (2): GlobalLayerNorm()
            (3): DepthwiseSeparableConv(
              (net): Sequential(
                (0): Conv1d(512, 512, kernel_size=(3,), stride=(1,), padding=(2,), dilation=(2,), groups=512, bias=False)
                (1): PReLU(num_parameters=1)
                (2): GlobalLayerNorm()
                (3): Conv1d(512, 256, kernel_size=(1,), stride=(1,), bias=False)
              )
            )
          )
        )
        (3): TemporalBlock(
          (net): Sequential(
            (0): Conv1d(256, 512, kernel_size=(1,), stride=(1,), bias=False)
            (1): PReLU(num_parameters=1)
            (2): GlobalLayerNorm()
            (3): DepthwiseSeparableConv(
              (net): Sequential(
                (0): Conv1d(512, 512, kernel_size=(3,), stride=(1,), padding=(4,), dilation=(4,), groups=512, bias=False)
                (1): PReLU(num_parameters=1)
                (2): GlobalLayerNorm()
                (3): Conv1d(512, 256, kernel_size=(1,), stride=(1,), bias=False)
              )
            )
          )
        )
        (4): TemporalBlock(
          (net): Sequential(
            (0): Conv1d(256, 512, kernel_size=(1,), stride=(1,), bias=False)
            (1): PReLU(num_parameters=1)
            (2): GlobalLayerNorm()
            (3): DepthwiseSeparableConv(
              (net): Sequential(
                (0): Conv1d(512, 512, kernel_size=(3,), stride=(1,), padding=(8,), dilation=(8,), groups=512, bias=False)
                (1): PReLU(num_parameters=1)
                (2): GlobalLayerNorm()
                (3): Conv1d(512, 256, kernel_size=(1,), stride=(1,), bias=False)
              )
            )
          )
        )
        (5): TemporalBlock(
          (net): Sequential(
            (0): Conv1d(256, 512, kernel_size=(1,), stride=(1,), bias=False)
            (1): PReLU(num_parameters=1)
            (2): GlobalLayerNorm()
            (3): DepthwiseSeparableConv(
              (net): Sequential(
                (0): Conv1d(512, 512, kernel_size=(3,), stride=(1,), padding=(16,), dilation=(16,), groups=512, bias=False)
                (1): PReLU(num_parameters=1)
                (2): GlobalLayerNorm()
                (3): Conv1d(512, 256, kernel_size=(1,), stride=(1,), bias=False)
              )
            )
          )
        )
        (6): TemporalBlock(
          (net): Sequential(
            (0): Conv1d(256, 512, kernel_size=(1,), stride=(1,), bias=False)
            (1): PReLU(num_parameters=1)
            (2): GlobalLayerNorm()
            (3): DepthwiseSeparableConv(
              (net): Sequential(
                (0): Conv1d(512, 512, kernel_size=(3,), stride=(1,), padding=(32,), dilation=(32,), groups=512, bias=False)
                (1): PReLU(num_parameters=1)
                (2): GlobalLayerNorm()
                (3): Conv1d(512, 256, kernel_size=(1,), stride=(1,), bias=False)
              )
            )
          )
        )
        (7): TemporalBlock(
          (net): Sequential(
            (0): Conv1d(256, 512, kernel_size=(1,), stride=(1,), bias=False)
            (1): PReLU(num_parameters=1)
            (2): GlobalLayerNorm()
            (3): DepthwiseSeparableConv(
              (net): Sequential(
                (0): Conv1d(512, 512, kernel_size=(3,), stride=(1,), padding=(64,), dilation=(64,), groups=512, bias=False)
                (1): PReLU(num_parameters=1)
                (2): GlobalLayerNorm()
                (3): Conv1d(512, 256, kernel_size=(1,), stride=(1,), bias=False)
              )
            )
          )
        )
        (8): TemporalBlock(
          (net): Sequential(
            (0): Conv1d(256, 512, kernel_size=(1,), stride=(1,), bias=False)
            (1): PReLU(num_parameters=1)
            (2): GlobalLayerNorm()
            (3): DepthwiseSeparableConv(
              (net): Sequential(
                (0): Conv1d(512, 512, kernel_size=(3,), stride=(1,), padding=(128,), dilation=(128,), groups=512, bias=False)
                (1): PReLU(num_parameters=1)
                (2): GlobalLayerNorm()
                (3): Conv1d(512, 256, kernel_size=(1,), stride=(1,), bias=False)
              )
            )
          )
        )
      )
    )
    (visual_conv): Sequential(
      (0): VisualConv1D(
        (net): Sequential(
          (0): ReLU()
          (1): BatchNorm1d(512, eps=1e-05, momentum=0.1, affine=True, track_running_stats=True)
          (2): Conv1d(512, 512, kernel_size=(3,), stride=(1,), padding=(1,), groups=512, bias=False)
          (3): PReLU(num_parameters=1)
          (4): BatchNorm1d(512, eps=1e-05, momentum=0.1, affine=True, track_running_stats=True)
          (5): Conv1d(512, 512, kernel_size=(1,), stride=(1,), bias=False)
        )
      )
      (1): VisualConv1D(
        (net): Sequential(
          (0): ReLU()
          (1): BatchNorm1d(512, eps=1e-05, momentum=0.1, affine=True, track_running_stats=True)
          (2): Conv1d(512, 512, kernel_size=(3,), stride=(1,), padding=(1,), groups=512, bias=False)
          (3): PReLU(num_parameters=1)
          (4): BatchNorm1d(512, eps=1e-05, momentum=0.1, affine=True, track_running_stats=True)
          (5): Conv1d(512, 512, kernel_size=(1,), stride=(1,), bias=False)
        )
      )
      (2): VisualConv1D(
        (net): Sequential(
          (0): ReLU()
          (1): BatchNorm1d(512, eps=1e-05, momentum=0.1, affine=True, track_running_stats=True)
          (2): Conv1d(512, 512, kernel_size=(3,), stride=(1,), padding=(1,), groups=512, bias=False)
          (3): PReLU(num_parameters=1)
          (4): BatchNorm1d(512, eps=1e-05, momentum=0.1, affine=True, track_running_stats=True)
          (5): Conv1d(512, 512, kernel_size=(1,), stride=(1,), bias=False)
        )
      )
      (3): VisualConv1D(
        (net): Sequential(
          (0): ReLU()
          (1): BatchNorm1d(512, eps=1e-05, momentum=0.1, affine=True, track_running_stats=True)
          (2): Conv1d(512, 512, kernel_size=(3,), stride=(1,), padding=(1,), groups=512, bias=False)
          (3): PReLU(num_parameters=1)
          (4): BatchNorm1d(512, eps=1e-05, momentum=0.1, affine=True, track_running_stats=True)
          (5): Conv1d(512, 512, kernel_size=(1,), stride=(1,), bias=False)
        )
      )
      (4): VisualConv1D(
        (net): Sequential(
          (0): ReLU()
          (1): BatchNorm1d(512, eps=1e-05, momentum=0.1, affine=True, track_running_stats=True)
          (2): Conv1d(512, 512, kernel_size=(3,), stride=(1,), padding=(1,), groups=512, bias=False)
          (3): PReLU(num_parameters=1)
          (4): BatchNorm1d(512, eps=1e-05, momentum=0.1, affine=True, track_running_stats=True)
          (5): Conv1d(512, 512, kernel_size=(1,), stride=(1,), bias=False)
        )
      )
    )
    (ve_conv1x1): ModuleList(
      (0-3): 4 x Conv1d(512, 256, kernel_size=(1,), stride=(1,), bias=False)
    )
    (mask_conv1x1): Conv1d(256, 256, kernel_size=(1,), stride=(1,), bias=False)
    (linear_fusion): Conv1d(512, 256, kernel_size=(1,), stride=(1,), bias=False)
  )
  (decoder): Decoder(
    (basis_signals): Linear(in_features=256, out_features=40, bias=False)
  )
  (visual_frontend): VisualFrontend(
    (frontend3D): Sequential(
      (0): Conv3d(1, 64, kernel_size=(5, 7, 7), stride=(1, 2, 2), padding=(2, 3, 3), bias=False)
      (1): BatchNorm3d(64, eps=0.001, momentum=0.01, affine=True, track_running_stats=True)
      (2): ReLU()
      (3): MaxPool3d(kernel_size=(1, 3, 3), stride=(1, 2, 2), padding=(0, 1, 1), dilation=1, ceil_mode=False)
    )
    (resnet): ResNet(
      (layer1): ResNetLayer(
        (conv1a): Conv2d(64, 64, kernel_size=(3, 3), stride=(1, 1), padding=(1, 1), bias=False)
        (bn1a): BatchNorm2d(64, eps=0.001, momentum=0.01, affine=True, track_running_stats=True)
        (conv2a): Conv2d(64, 64, kernel_size=(3, 3), stride=(1, 1), padding=(1, 1), bias=False)
        (downsample): Conv2d(64, 64, kernel_size=(1, 1), stride=(1, 1), bias=False)
        (outbna): BatchNorm2d(64, eps=0.001, momentum=0.01, affine=True, track_running_stats=True)
        (conv1b): Conv2d(64, 64, kernel_size=(3, 3), stride=(1, 1), padding=(1, 1), bias=False)
        (bn1b): BatchNorm2d(64, eps=0.001, momentum=0.01, affine=True, track_running_stats=True)
        (conv2b): Conv2d(64, 64, kernel_size=(3, 3), stride=(1, 1), padding=(1, 1), bias=False)
        (outbnb): BatchNorm2d(64, eps=0.001, momentum=0.01, affine=True, track_running_stats=True)
      )
      (layer2): ResNetLayer(
        (conv1a): Conv2d(64, 128, kernel_size=(3, 3), stride=(2, 2), padding=(1, 1), bias=False)
        (bn1a): BatchNorm2d(128, eps=0.001, momentum=0.01, affine=True, track_running_stats=True)
        (conv2a): Conv2d(128, 128, kernel_size=(3, 3), stride=(1, 1), padding=(1, 1), bias=False)
        (downsample): Conv2d(64, 128, kernel_size=(1, 1), stride=(2, 2), bias=False)
        (outbna): BatchNorm2d(128, eps=0.001, momentum=0.01, affine=True, track_running_stats=True)
        (conv1b): Conv2d(128, 128, kernel_size=(3, 3), stride=(1, 1), padding=(1, 1), bias=False)
        (bn1b): BatchNorm2d(128, eps=0.001, momentum=0.01, affine=True, track_running_stats=True)
        (conv2b): Conv2d(128, 128, kernel_size=(3, 3), stride=(1, 1), padding=(1, 1), bias=False)
        (outbnb): BatchNorm2d(128, eps=0.001, momentum=0.01, affine=True, track_running_stats=True)
      )
      (layer3): ResNetLayer(
        (conv1a): Conv2d(128, 256, kernel_size=(3, 3), stride=(2, 2), padding=(1, 1), bias=False)
        (bn1a): BatchNorm2d(256, eps=0.001, momentum=0.01, affine=True, track_running_stats=True)
        (conv2a): Conv2d(256, 256, kernel_size=(3, 3), stride=(1, 1), padding=(1, 1), bias=False)
        (downsample): Conv2d(128, 256, kernel_size=(1, 1), stride=(2, 2), bias=False)
        (outbna): BatchNorm2d(256, eps=0.001, momentum=0.01, affine=True, track_running_stats=True)
        (conv1b): Conv2d(256, 256, kernel_size=(3, 3), stride=(1, 1), padding=(1, 1), bias=False)
        (bn1b): BatchNorm2d(256, eps=0.001, momentum=0.01, affine=True, track_running_stats=True)
        (conv2b): Conv2d(256, 256, kernel_size=(3, 3), stride=(1, 1), padding=(1, 1), bias=False)
        (outbnb): BatchNorm2d(256, eps=0.001, momentum=0.01, affine=True, track_running_stats=True)
      )
      (layer4): ResNetLayer(
        (conv1a): Conv2d(256, 512, kernel_size=(3, 3), stride=(2, 2), padding=(1, 1), bias=False)
        (bn1a): BatchNorm2d(512, eps=0.001, momentum=0.01, affine=True, track_running_stats=True)
        (conv2a): Conv2d(512, 512, kernel_size=(3, 3), stride=(1, 1), padding=(1, 1), bias=False)
        (downsample): Conv2d(256, 512, kernel_size=(1, 1), stride=(2, 2), bias=False)
        (outbna): BatchNorm2d(512, eps=0.001, momentum=0.01, affine=True, track_running_stats=True)
        (conv1b): Conv2d(512, 512, kernel_size=(3, 3), stride=(1, 1), padding=(1, 1), bias=False)
        (bn1b): BatchNorm2d(512, eps=0.001, momentum=0.01, affine=True, track_running_stats=True)
        (conv2b): Conv2d(512, 512, kernel_size=(3, 3), stride=(1, 1), padding=(1, 1), bias=False)
        (outbnb): BatchNorm2d(512, eps=0.001, momentum=0.01, affine=True, track_running_stats=True)
      )
      (avgpool): AvgPool2d(kernel_size=(4, 4), stride=(1, 1), padding=0)
    )
  )
  (linear_fusion): Conv1d(512, 256, kernel_size=(1,), stride=(1,), bias=False)
  (preEmphasis): PreEmphasis()
  (spk_encoder): MelSpectrogram(
    (spectrogram): Spectrogram()
    (mel_scale): MelScale()
  )
  (spk_model): ECAPA_TDNN(
    (layer1): Conv1dReluBn(
      (conv): Conv1d(80, 256, kernel_size=(5,), stride=(1,), padding=(2,))
      (bn): BatchNorm1d(256, eps=1e-05, momentum=0.1, affine=True, track_running_stats=True)
    )
    (layer2): SE_Res2Block(
      (se_res2block): Sequential(
        (0): Conv1dReluBn(
          (conv): Conv1d(256, 256, kernel_size=(1,), stride=(1,))
          (bn): BatchNorm1d(256, eps=1e-05, momentum=0.1, affine=True, track_running_stats=True)
        )
        (1): Res2Conv1dReluBn(
          (convs): ModuleList(
            (0-6): 7 x Conv1d(32, 32, kernel_size=(3,), stride=(1,), padding=(2,), dilation=(2,))
          )
          (bns): ModuleList(
            (0-6): 7 x BatchNorm1d(32, eps=1e-05, momentum=0.1, affine=True, track_running_stats=True)
          )
        )
        (2): Conv1dReluBn(
          (conv): Conv1d(256, 256, kernel_size=(1,), stride=(1,))
          (bn): BatchNorm1d(256, eps=1e-05, momentum=0.1, affine=True, track_running_stats=True)
        )
        (3): SE_Connect(
          (linear1): Linear(in_features=256, out_features=128, bias=True)
          (linear2): Linear(in_features=128, out_features=256, bias=True)
        )
      )
    )
    (layer3): SE_Res2Block(
      (se_res2block): Sequential(
        (0): Conv1dReluBn(
          (conv): Conv1d(256, 256, kernel_size=(1,), stride=(1,))
          (bn): BatchNorm1d(256, eps=1e-05, momentum=0.1, affine=True, track_running_stats=True)
        )
        (1): Res2Conv1dReluBn(
          (convs): ModuleList(
            (0-6): 7 x Conv1d(32, 32, kernel_size=(3,), stride=(1,), padding=(3,), dilation=(3,))
          )
          (bns): ModuleList(
            (0-6): 7 x BatchNorm1d(32, eps=1e-05, momentum=0.1, affine=True, track_running_stats=True)
          )
        )
        (2): Conv1dReluBn(
          (conv): Conv1d(256, 256, kernel_size=(1,), stride=(1,))
          (bn): BatchNorm1d(256, eps=1e-05, momentum=0.1, affine=True, track_running_stats=True)
        )
        (3): SE_Connect(
          (linear1): Linear(in_features=256, out_features=128, bias=True)
          (linear2): Linear(in_features=128, out_features=256, bias=True)
        )
      )
    )
    (layer4): SE_Res2Block(
      (se_res2block): Sequential(
        (0): Conv1dReluBn(
          (conv): Conv1d(256, 256, kernel_size=(1,), stride=(1,))
          (bn): BatchNorm1d(256, eps=1e-05, momentum=0.1, affine=True, track_running_stats=True)
        )
        (1): Res2Conv1dReluBn(
          (convs): ModuleList(
            (0-6): 7 x Conv1d(32, 32, kernel_size=(3,), stride=(1,), padding=(4,), dilation=(4,))
          )
          (bns): ModuleList(
            (0-6): 7 x BatchNorm1d(32, eps=1e-05, momentum=0.1, affine=True, track_running_stats=True)
          )
        )
        (2): Conv1dReluBn(
          (conv): Conv1d(256, 256, kernel_size=(1,), stride=(1,))
          (bn): BatchNorm1d(256, eps=1e-05, momentum=0.1, affine=True, track_running_stats=True)
        )
        (3): SE_Connect(
          (linear1): Linear(in_features=256, out_features=128, bias=True)
          (linear2): Linear(in_features=128, out_features=256, bias=True)
        )
      )
    )
    (conv): Conv1d(768, 1536, kernel_size=(1,), stride=(1,))
    (pool): ASTP(
      (linear1): Conv1d(1536, 128, kernel_size=(1,), stride=(1,))
      (linear2): Conv1d(128, 1536, kernel_size=(1,), stride=(1,))
    )
    (bn): BatchNorm1d(3072, eps=1e-05, momentum=0.1, affine=True, track_running_stats=True)
    (linear): Linear(in_features=3072, out_features=256, bias=True)
    (bn2): Identity()
  )
  (self_att): CrossAttentionAVG(
    (query_proj): Linear(in_features=256, out_features=256, bias=False)
    (key_proj): Linear(in_features=256, out_features=256, bias=False)
    (value_proj): Linear(in_features=256, out_features=256, bias=False)
  )
)
Start new training
step:1/445 avg loss:39.351, visual_loss:43.889, av_loss:38.216
step:1/445 avg loss:35.004, visual_loss:34.994, av_loss:35.006
step:1/445 avg loss:48.140, visual_loss:48.296, av_loss:48.101
Train Summary | End of Epoch 1 | Time 594.26s | Current time 2024-12-26 17:49:20.184011 |Train Loss 0.914| 
step:1/111 avg loss:-0.312, visual_loss:-0.289, av_loss:-0.318
…
