…
': 768, 'id07175': 769, 'id03877': 770, 'id00755': 771, 'id04151': 772, 'id00022': 773, 'id08022': 774, 'id02384': 775, 'id06474': 776, 'id04716': 777, 'id04560': 778, 'id02040': 779, 'id02437': 780, 'id00911': 781, 'id03931': 782, 'id03527': 783, 'id01315': 784, 'id03820': 785, 'id03352': 786, 'id02150': 787, 'id00752': 788, 'id07980': 789, 'id07341': 790, 'id01639': 791, 'id03304': 792, 'id04589': 793, 'id02252': 794, 'id08477': 795, 'id07954': 796, 'id03907': 797, 'id04300': 798, 'id06905': 799}, speakers=800)

Total number of parameters: 15304390 

usev(
  (encoder): Encoder(
    (conv1d_U): Conv1d(1, 256, kernel_size=(40,), stride=(20,), bias=False)
  )
  (separator): rnn(
    (layer_norm): GroupNorm(1, 256, eps=1e-08, affine=True)
    (bottleneck_conv1x1): Conv1d(256, 64, kernel_size=(1,), stride=(1,), bias=False)
    (dual_rnn): ModuleList(
      (0-5): 6 x Dual_RNN_Block(
        (intra_rnn): LSTM(64, 128, batch_first=True, bidirectional=True)
        (inter_rnn): LSTM(64, 128, batch_first=True, bidirectional=True)
        (intra_norm): GroupNorm(1, 64, eps=1e-08, affine=True)
        (inter_norm): GroupNorm(1, 64, eps=1e-08, affine=True)
        (intra_linear): Linear(in_features=256, out_features=64, bias=True)
        (inter_linear): Linear(in_features=256, out_features=64, bias=True)
      )
    )
    (prelu): PReLU(num_parameters=1)
    (mask_conv1x1): Conv1d(64, 256, kernel_size=(1,), stride=(1,), bias=False)
    (v_ds): Linear(in_features=512, out_features=256, bias=False)
    (visual_conv): Sequential(
      (0): VisualConv1D(
        (net): Sequential(
          (0): ReLU()
          (1): GlobalLayerNorm()
          (2): Conv1d(256, 512, kernel_size=(1,), stride=(1,), bias=False)
          (3): ReLU()
          (4): GlobalLayerNorm()
          (5): Conv1d(512, 512, kernel_size=(3,), stride=(1,), padding=(1,), groups=512, bias=False)
          (6): PReLU(num_parameters=1)
          (7): GlobalLayerNorm()
          (8): Conv1d(512, 256, kernel_size=(1,), stride=(1,), bias=False)
        )
      )
      (1): VisualConv1D(
        (net): Sequential(
          (0): ReLU()
          (1): GlobalLayerNorm()
          (2): Conv1d(256, 512, kernel_size=(1,), stride=(1,), bias=False)
          (3): ReLU()
          (4): GlobalLayerNorm()
          (5): Conv1d(512, 512, kernel_size=(3,), stride=(1,), padding=(1,), groups=512, bias=False)
          (6): PReLU(num_parameters=1)
          (7): GlobalLayerNorm()
          (8): Conv1d(512, 256, kernel_size=(1,), stride=(1,), bias=False)
        )
      )
      (2): VisualConv1D(
        (net): Sequential(
          (0): ReLU()
          (1): GlobalLayerNorm()
          (2): Conv1d(256, 512, kernel_size=(1,), stride=(1,), bias=False)
          (3): ReLU()
          (4): GlobalLayerNorm()
          (5): Conv1d(512, 512, kernel_size=(3,), stride=(1,), padding=(1,), groups=512, bias=False)
          (6): PReLU(num_parameters=1)
          (7): GlobalLayerNorm()
          (8): Conv1d(512, 256, kernel_size=(1,), stride=(1,), bias=False)
        )
      )
      (3): VisualConv1D(
        (net): Sequential(
          (0): ReLU()
          (1): GlobalLayerNorm()
          (2): Conv1d(256, 512, kernel_size=(1,), stride=(1,), bias=False)
          (3): ReLU()
          (4): GlobalLayerNorm()
          (5): Conv1d(512, 512, kernel_size=(3,), stride=(1,), padding=(1,), groups=512, bias=False)
          (6): PReLU(num_parameters=1)
          (7): GlobalLayerNorm()
          (8): Conv1d(512, 256, kernel_size=(1,), stride=(1,), bias=False)
        )
      )
      (4): VisualConv1D(
        (net): Sequential(
          (0): ReLU()
          (1): GlobalLayerNorm()
          (2): Conv1d(256, 512, kernel_size=(1,), stride=(1,), bias=False)
          (3): ReLU()
          (4): GlobalLayerNorm()
          (5): Conv1d(512, 512, kernel_size=(3,), stride=(1,), padding=(1,), groups=512, bias=False)
          (6): PReLU(num_parameters=1)
          (7): GlobalLayerNorm()
          (8): Conv1d(512, 256, kernel_size=(1,), stride=(1,), bias=False)
        )
      )
    )
    (av_conv): Conv1d(320, 64, kernel_size=(1,), stride=(1,), bias=False)
  )
  (decoder): Decoder(
    (basis_signals): Linear(in_features=256, out_features=40, bias=False)
  )
  (visual_frontend): VisualFrontend(
    (frontend3D): Sequential(
      (0): Conv3d(1, 64, kernel_size=(5, 7, 7), stride=(1, 2, 2), padding=(2, 3, 3), bias=False)
      (1): BatchNorm3d(64, eps=0.001, momentum=0.01, affine=True, track_running_stats=True)
      (2): ReLU()
      (3): MaxPool3d(kernel_size=(1, 3, 3), stride=(1, 2, 2), padding=(0, 1, 1), dilation=1, ceil_mode=False)
    )
    (resnet): ResNet(
      (layer1): ResNetLayer(
        (conv1a): Conv2d(64, 64, kernel_size=(3, 3), stride=(1, 1), padding=(1, 1), bias=False)
        (bn1a): BatchNorm2d(64, eps=0.001, momentum=0.01, affine=True, track_running_stats=True)
        (conv2a): Conv2d(64, 64, kernel_size=(3, 3), stride=(1, 1), padding=(1, 1), bias=False)
        (downsample): Conv2d(64, 64, kernel_size=(1, 1), stride=(1, 1), bias=False)
        (outbna): BatchNorm2d(64, eps=0.001, momentum=0.01, affine=True, track_running_stats=True)
        (conv1b): Conv2d(64, 64, kernel_size=(3, 3), stride=(1, 1), padding=(1, 1), bias=False)
        (bn1b): BatchNorm2d(64, eps=0.001, momentum=0.01, affine=True, track_running_stats=True)
        (conv2b): Conv2d(64, 64, kernel_size=(3, 3), stride=(1, 1), padding=(1, 1), bias=False)
        (outbnb): BatchNorm2d(64, eps=0.001, momentum=0.01, affine=True, track_running_stats=True)
      )
      (layer2): ResNetLayer(
        (conv1a): Conv2d(64, 128, kernel_size=(3, 3), stride=(2, 2), padding=(1, 1), bias=False)
        (bn1a): BatchNorm2d(128, eps=0.001, momentum=0.01, affine=True, track_running_stats=True)
        (conv2a): Conv2d(128, 128, kernel_size=(3, 3), stride=(1, 1), padding=(1, 1), bias=False)
        (downsample): Conv2d(64, 128, kernel_size=(1, 1), stride=(2, 2), bias=False)
        (outbna): BatchNorm2d(128, eps=0.001, momentum=0.01, affine=True, track_running_stats=True)
        (conv1b): Conv2d(128, 128, kernel_size=(3, 3), stride=(1, 1), padding=(1, 1), bias=False)
        (bn1b): BatchNorm2d(128, eps=0.001, momentum=0.01, affine=True, track_running_stats=True)
        (conv2b): Conv2d(128, 128, kernel_size=(3, 3), stride=(1, 1), padding=(1, 1), bias=False)
        (outbnb): BatchNorm2d(128, eps=0.001, momentum=0.01, affine=True, track_running_stats=True)
      )
      (layer3): ResNetLayer(
        (conv1a): Conv2d(128, 256, kernel_size=(3, 3), stride=(2, 2), padding=(1, 1), bias=False)
        (bn1a): BatchNorm2d(256, eps=0.001, momentum=0.01, affine=True, track_running_stats=True)
        (conv2a): Conv2d(256, 256, kernel_size=(3, 3), stride=(1, 1), padding=(1, 1), bias=False)
        (downsample): Conv2d(128, 256, kernel_size=(1, 1), stride=(2, 2), bias=False)
        (outbna): BatchNorm2d(256, eps=0.001, momentum=0.01, affine=True, track_running_stats=True)
        (conv1b): Conv2d(256, 256, kernel_size=(3, 3), stride=(1, 1), padding=(1, 1), bias=False)
        (bn1b): BatchNorm2d(256, eps=0.001, momentum=0.01, affine=True, track_running_stats=True)
        (conv2b): Conv2d(256, 256, kernel_size=(3, 3), stride=(1, 1), padding=(1, 1), bias=False)
        (outbnb): BatchNorm2d(256, eps=0.001, momentum=0.01, affine=True, track_running_stats=True)
      )
      (layer4): ResNetLayer(
        (conv1a): Conv2d(256, 512, kernel_size=(3, 3), stride=(2, 2), padding=(1, 1), bias=False)
        (bn1a): BatchNorm2d(512, eps=0.001, momentum=0.01, affine=True, track_running_stats=True)
        (conv2a): Conv2d(512, 512, kernel_size=(3, 3), stride=(1, 1), padding=(1, 1), bias=False)
        (downsample): Conv2d(256, 512, kernel_size=(1, 1), stride=(2, 2), bias=False)
        (outbna): BatchNorm2d(512, eps=0.001, momentum=0.01, affine=True, track_running_stats=True)
        (conv1b): Conv2d(512, 512, kernel_size=(3, 3), stride=(1, 1), padding=(1, 1), bias=False)
        (bn1b): BatchNorm2d(512, eps=0.001, momentum=0.01, affine=True, track_running_stats=True)
        (conv2b): Conv2d(512, 512, kernel_size=(3, 3), stride=(1, 1), padding=(1, 1), bias=False)
        (outbnb): BatchNorm2d(512, eps=0.001, momentum=0.01, affine=True, track_running_stats=True)
      )
      (avgpool): AvgPool2d(kernel_size=(4, 4), stride=(1, 1), padding=0)
    )
  )
)
Start new training
step:1/1667 avg loss:40.004
step:1/1667 avg loss:33.292
step:1001/1667 avg loss:0.415
step:1001/1667 avg loss:0.425
Train Summary | End of Epoch 1 | Time 1285.43s | Current time 2025-01-10 18:44:01.043613 |Train Loss 0.157| 
…
